…
.nn.init.normal_(p, 0, 0.1)\n        print(name, p.shape)\nmodel.save_pretrained(save_folder)\n# print(list(model.state_dict().keys()))\n# there is some bug in model.save_pretrained... Re-save the model weights here.\nimport safetensors.torch\nsafetensors.torch.save_file(\n    tensors=model.state_dict(),\n    filename=f\"{save_folder}\/model.safetensors\"\n)\n```\n\n### Printing the model:\n\n```text\nSam3Model(\n  (vision_encoder): Sam3VisionModel(\n    (backbone): Sam3ViTModel(\n      (embeddings): Sam3ViTEmbeddings(\n        (patch_embeddings): Sam3ViTPatchEmbeddings(\n          (projection): Conv2d(3, 16, kernel_size=(14, 14), stride=(14, 14), bias=False)\n        )\n        (dropout): Dropout(p=0.0, inplace=False)\n      )\n      (layer_norm): LayerNorm((16,), eps=1e-06, elementwise_affine=True)\n      (layers): ModuleList(\n        (0-7): 8 x Sam3ViTLayer(\n          (layer_norm1): LayerNorm((16,), eps=1e-06, elementwise_affine=True)\n          (rotary_emb): Sam3ViTRotaryEmbedding()\n          (attention): Sam3ViTRoPEAttention(\n            (q_proj): Linear(in_features=16, out_features=16, bias=True)\n            (k_proj): Linear(in_features=16, out_features=16, bias=True)\n            (v_proj): Linear(in_features=16, out_features=16, bias=True)\n            (o_proj): Linear(in_features=16, out_features=16, bias=True)\n          )\n          (layer_norm2): LayerNorm((16,), eps=1e-06, elementwise_affine=True)\n          (mlp): Sam3MLP(\n            (activation_fn): GELUActivation()\n            (fc1): Linear(in_features=16, out_features=32, bias=True)\n            (fc2): Linear(in_features=32, out_features=16, bias=True)\n            (dropout): Dropout(p=0.0, inplace=False)\n          )\n          (dropout): Dropout(p=0.0, inplace=False)\n        )\n      )\n    )\n    (neck): Sam3VisionNeck(\n      (position_encoding): Sam3SinePositionEmbedding()\n      (fpn_layers): ModuleList(\n        (0): Sam3FPNLayer(\n          (scale_layers): ModuleList(\n            (0): ConvTranspose2d(16, 8, kernel_size=(2, 2), stride=(2, 2))\n            (1): GELU(approximate='none')\n            (2): ConvTranspose2d(8, 4, kernel_size=(2, 2), stride=(2, 2))\n          )\n          (proj1): Conv2d(4, 16, kernel_size=(1, 1), stride=(1, 1))\n          (proj2): Conv2d(16, 16, kernel_size=(3, 3), stride=(1, 1), padding=(1, 1))\n        )\n        (1): Sam3FPNLayer(\n          (scale_layers): ModuleList(\n            (0): ConvTranspose2d(16, 8, kernel_size=(2, 2), stride=(2, 2))\n          )\n          (proj1): Conv2d(8, 16, kernel_size=(1, 1), stride=(1, 1))\n          (proj2): Conv2d(16, 16, kernel_size=(3, 3), stride=(1, 1), padding=(1, 1))\n        )\n        (2): Sam3FPNLayer(\n          (scale_layers): ModuleList()\n          (proj1): Conv2d(16, 16, kernel_size=(1, 1), stride=(1, 1))\n          (proj2): Conv2d(16, 16, kernel_size=(3, 3), stride=(1, 1), padding=(1, 1))\n        )\n        (3): Sam3FPNLayer(\n          (scale_layers): ModuleList(\n            (0): MaxPool2d(kernel_size=2, stride=2, padding=0, dilation=1, ceil_mode=False)\n          )\n          (proj1): Conv2d(16, 16, kernel_size=(1, 1), stride=(1, 1))\n          (proj2): Conv2d(16, 16, kernel_size=(3, 3), stride=(1, 1), padding=(1, 1))\n        )\n      )\n    )\n  )\n  (text_encoder): CLIPTextModelWithProjection(\n    (text_model): CLIPTextTransformer(\n      (embeddings): CLIPTextEmbeddings(\n        (token_embedding): Embedding(49408, 16)\n        (position_embedding): Embedding(32, 16)\n      )\n      (encoder): CLIPEncoder(\n        (layers): ModuleList(\n          (0-1): 2 x CLIPEncoderLayer(\n            (self_attn): CLIPAttention(\n              (k_proj): Linear(in_features=16, out_features=16, bias=True)\n              (v_proj): Linear(in_features=16, out_features=16, bias=True)\n              (q_proj): Linear(in_features=16, out_features=16, bias=True)\n              (out_proj): Linear(in_features=16, out_features=16, bias=True)\n            )\n            (layer_norm1): LayerNorm((16,), eps=1e-05, elementwise_affine=True)\n            (mlp): CLIPMLP(\n              (activation_fn): GELUActivation()\n              (fc1): Linear(in_features=16, out_features=32, bias=True)\n              (fc2): Linear(in_features=32, out_features=16, bias=True)\n            )\n            (layer_norm2): LayerNorm((16,), eps=1e-05, elementwise_affine=True)\n          )\n        )\n      )\n      (final_layer_norm): LayerNorm((16,), eps=1e-05, elementwise_affine=True)\n    )\n    (text_projection): Linear(in_features=16, out_features=16, bias=False)\n  )\n  (text_projection): Linear(in_features=16, out_features=16, bias=True)\n  (geometry_encoder): Sam3GeometryEncoder(\n    (position_encoding): Sam3SinePositionEmbedding()\n    (label_embed): Embedding(2, 16)\n    (cls_embed): Embedding(1, 16)\n    (boxes_direct_project): Linear(in_features=4, out_features=16, bias=True)\n    (boxes_pool_project): Conv2d(16, 16, kernel_size=(7, 7), stride=(1, 1))\n    (boxes_pos_enc_project): Linear(in_features=18, out_features=16, bias=True)\n    (vision_layer_norm): LayerNorm((16,), eps=1e-05, elementwise_affine=True)\n    (final_proj): Linear(in_features=16, out_features=16, bias=True)\n    (prompt_layer_norm): LayerNorm((16,), eps=1e-05, elementwise_affine=True)\n    (layers): ModuleList(\n      (0-2): 3 x Sam3GeometryEncoderLayer(\n        (layer_norm1): LayerNorm((16,), eps=1e-05, elementwise_affine=True)\n        (self_attn): Sam3Attention(\n          (q_proj): Linear(in_features=16, out_features=16, bias=True)\n          (k_proj): Linear(in_features=16, out_features=16, bias=True)\n          (v_proj): Linear(in_features=16, out_features=16, bias=True)\n          (o_proj): Linear(in_features=16, out_features=16, bias=True)\n        )\n        (dropout): Dropout(p=0.1, inplace=False)\n        (cross_attn): Sam3Attention(\n          (q_proj): Linear(in_features=16, out_features=16, bias=True)\n          (k_proj): Linear(in_features=16, out_features=16, bias=True)\n          (v_proj): Linear(in_features=16, out_features=16, bias=True)\n          (o_proj): Linear(in_features=16, out_features=16, bias=True)\n        )\n        (layer_norm2): LayerNorm((16,), eps=1e-05, elementwise_affine=True)\n        (mlp): Sam3MLP(\n          (activation_fn): ReLU()\n          (fc1): Linear(in_features=16, out_features=32, bias=True)\n          (fc2): Linear(in_features=32, out_features=16, bias=True)\n          (dropout): Dropout(p=0.0, inplace=False)\n        )\n        (layer_norm3): LayerNorm((16,), eps=1e-05, elementwise_affine=True)\n      )\n    )\n    (output_layer_norm): LayerNorm((16,), eps=1e-05, elementwise_affine=True)\n  )\n  (detr_encoder): Sam3DetrEncoder(\n    (layers): ModuleList(\n      (0-5): 6 x Sam3DetrEncoderLayer(\n        (layer_norm1): LayerNorm((16,), eps=1e-05, elementwise_affine=True)\n        (self_attn): Sam3Attention(\n          (q_proj): Linear(in_features=16, out_features=16, bias=True)\n          (k_proj): Linear(in_features=16, out_features=16, bias=True)\n          (v_proj): Linear(in_features=16, out_features=16, bias=True)\n          (o_proj): Linear(in_features=16, out_features=16, bias=True)\n        )\n        (dropout): Dropout(p=0.1, inplace=False)\n        (cross_attn): Sam3Attention(\n          (q_proj): Linear(in_features=16, out_features=16, bias=True)\n          (k_proj): Linear(in_features=16, out_features=16, bias=True)\n          (v_proj): Linear(in_features=16, out_features=16, bias=True)\n          (o_proj): Linear(in_features=16, out_features=16, bias=True)\n        )\n        (layer_norm2): LayerNorm((16,), eps=1e-05, elementwise_affine=True)\n        (mlp): Sam3MLP(\n          (activation_fn): ReLU()\n          (fc1): Linear(in_features=16, out_features=32, bias=True)\n          (fc2): Linear(in_features=32, out_features=16, bias=True)\n          (dropout): Dropout(p=0.0, inplace=False)\n        )\n        (layer_norm3): LayerNorm((16,), eps=1e-05, elementwise_affine=True)\n      )\n    )\n  )\n  (detr_decoder): Sam3DetrDecoder(\n    (layers): ModuleList(\n      (0-5): 6 x Sam3DetrDecoderLayer(\n        (self_attn): Sam3Attention(\n          (q_proj): Linear(in_features=16, out_features=16, bias=True)\n          (k_proj): Linear(in_features=16, out_features=16, bias=True)\n          (v_proj): Linear(in_features=16, out_features=16, bias=True)\n          (o_proj): Linear(in_features=16, out_features=16, bias=True)\n        )\n        (self_attn_dropout): Dropout(p=0.1, inplace=False)\n        (self_attn_layer_norm): LayerNorm((16,), eps=1e-05, elementwise_affine=True)\n        (text_cross_attn): Sam3Attention(\n          (q_proj): Linear(in_features=16, out_features=16, bias=True)\n          (k_proj): Linear(in_features=16, out_features=16, bias=True)\n          (v_proj): Linear(in_features=16, out_features=16, bias=True)\n          (o_proj): Linear(in_features=16, out_features=16, bias=True)\n        )\n        (text_cross_attn_dropout): Dropout(p=0.1, inplace=False)\n        (text_cross_attn_layer_norm): LayerNorm((16,), eps=1e-05, elementwise_affine=True)\n        (vision_cross_attn): Sam3Attention(\n          (q_proj): Linear(in_features=16, out_features=16, bias=True)\n          (k_proj): Linear(in_features=16, out_features=16, bias=True)\n          (v_proj): Linear(in_features=16, out_features=16, bias=True)\n          (o_proj): Linear(in_features=16, out_features=16, bias=True)\n        )\n        (vision_cross_attn_dropout): Dropout(p=0.1, inplace=False)\n        (vision_cross_attn_layer_norm): LayerNorm((16,), eps=1e-05, elementwise_affine=True)\n        (mlp): Sam3MLP(\n          (activation_fn): ReLU()\n          (fc1): Linear(in_features=16, out_features=32, bias=True)\n          (fc2): Linear(in_features=32, out_features=16, bias=True)\n          (dropout): Dropout(p=0.0, inplace=False)\n        )\n        (mlp_layer_norm): LayerNorm((16,), eps=1e-05, elementwise_affine=True)\n        (mlp_dropout): Dropout(p=0.1, inplace=False)\n      )\n    )\n    (output_layer_norm): LayerNorm((16,), eps=1e-05, elementwise_affine=True)\n    (box_head): Sam3DecoderMLP(\n      (layer1): Linear(in_features=16, out_features=16, bias=True)\n      (layer2): Linear(in_features=16, out_features=16, bias=True)\n      (layer3): Linear(in_features=16, out_features=4, bias=True)\n    )\n    (query_embed): Embedding(200, 16)\n    (reference_points): Embedding(200, 4)\n    (presence_token): Embedding(1, 16)\n    (presence_head): Sam3DecoderMLP(\n      (layer1): Linear(in_features=16, out_features=16, bias=True)\n      (layer2): Linear(in_features=16, out_features=16, bias=True)\n      (layer3): Linear(in_features=16, out_features=1, bias=True)\n    )\n    (presence_layer_norm): LayerNorm((16,), eps=1e-05, elementwise_affine=True)\n    (ref_point_head): Sam3DecoderMLP(\n      (layer1): Linear(in_features=32, out_features=16, bias=True)\n      (layer2): Linear(in_features=16, out_features=16, bias=True)\n    )\n    (box_rpb_embed_x): Sam3DecoderMLP(\n      (layer1): Linear(in_features=2, out_features=16, bias=True)\n      (layer2): Linear(in_features=16, out_features=2, bias=True)\n    )\n    (box_rpb_embed_y): Sam3DecoderMLP(\n      (layer1): Linear(in_features=2, out_features=16, bias=True)\n      (layer2): Linear(in_features=16, out_features=2, bias=True)\n    )\n    (position_encoding): Sam3SinePositionEmbedding()\n  )\n  (mask_decoder): Sam3MaskDecoder(\n    (pixel_decoder): Sam3PixelDecoder(\n      (conv_layers): ModuleList(\n        (0-2): 3 x Conv2d(16, 16, kernel_size=(3, 3), stride=(1, 1), padding=(1, 1))\n      )\n      (norms): ModuleList(\n        (0-2): 3 x GroupNorm(8, 16, eps=1e-05, affine=True)\n      )\n    )\n    (mask_embedder): Sam3MaskEmbedder(\n      (layers): ModuleList(\n        (0-2): 3 x Linear(in_features=16, out_features=16, bias=True)\n      )\n      (activation): ReLU()\n    )\n    (instance_projection): Conv2d(16, 16, kernel_size=(1, 1), stride=(1, 1))\n    (semantic_projection): Conv2d(16, 1, kernel_size=(1, 1), stride=(1, 1))\n    (prompt_cross_attn): Sam3Attention(\n      (q_proj): Linear(in_features=16, out_features=16, bias=True)\n      (k_proj): Linear(in_features=16, out_features=16, bias=True)\n      (v_proj): Linear(in_features=16, out_features=16, bias=True)\n      (o_proj): Linear(in_features=16, out_features=16, bias=True)\n    )\n    (prompt_cross_attn_norm): LayerNorm((16,), eps=1e-05, elementwise_affine=True)\n    (prompt_cross_attn_dropout): Dropout(p=0.0, inplace=False)\n  )\n  (dot_product_scoring): Sam3DotProductScoring(\n    (text_mlp): Sam3DecoderMLP(\n      (layer1): Linear(in_features=16, out_features=32, bias=True)\n      (layer2): Linear(in_features=32, out_features=16, bias=True)\n    )\n    (text_mlp_dropout): Dropout(p=0.1, inplace=False)\n    (text_mlp_out_norm): LayerNorm((16,), eps=1e-05, elementwise_affine=True)\n    (text_proj): Linear(in_features=16, out_features=16, bias=True)\n    (query_proj): Linear(in_features=16, out_features=16, bias=True)\n  )\n)\n```","api_call":"","model_name":"tiny-random\/sam3"},"explanation":""}
{"model_name":"dmolino\/text2ct-weights","model_family":"text2ct-weights","created_at":1764542122000,"instruction":"Create a 3D CT image of a brain with a well-defined tumor in the frontal lobe.","domain":"Computer Vision Text-to-3D","original_dataset":"Hugging Bench","model_
…
.nn.init.normal_(p, 0, 0.1)\n        print(name, p.shape)\nmodel.save_pretrained(save_folder)\n# print(list(model.state_dict().keys()))\n# there is some bug in model.save_pretrained... Re-save the model weights here.\nimport safetensors.torch\nsafetensors.torch.save_file(\n    tensors=model.state_dict(),\n    filename=f\"{save_folder}\/model.safetensors\"\n)\n```\n\n### Printing the model:\n\n```text\nSam3Model(\n  (vision_encoder): Sam3VisionModel(\n    (backbone): Sam3ViTModel(\n      (embeddings): Sam3ViTEmbeddings(\n        (patch_embeddings): Sam3ViTPatchEmbeddings(\n          (projection): Conv2d(3, 16, kernel_size=(14, 14), stride=(14, 14), bias=False)\n        )\n        (dropout): Dropout(p=0.0, inplace=False)\n      )\n      (layer_norm): LayerNorm((16,), eps=1e-06, elementwise_affine=True)\n      (layers): ModuleList(\n        (0-7): 8 x Sam3ViTLayer(\n          (layer_norm1): LayerNorm((16,), eps=1e-06, elementwise_affine=True)\n          (rotary_emb): Sam3ViTRotaryEmbedding()\n          (attention): Sam3ViTRoPEAttention(\n            (q_proj): Linear(in_features=16, out_features=16, bias=True)\n            (k_proj): Linear(in_features=16, out_features=16, bias=True)\n            (v_proj): Linear(in_features=16, out_features=16, bias=True)\n            (o_proj): Linear(in_features=16, out_features=16, bias=True)\n          )\n          (layer_norm2): LayerNorm((16,), eps=1e-06, elementwise_affine=True)\n          (mlp): Sam3MLP(\n            (activation_fn): GELUActivation()\n            (fc1): Linear(in_features=16, out_features=32, bias=True)\n            (fc2): Linear(in_features=32, out_features=16, bias=True)\n            (dropout): Dropout(p=0.0, inplace=False)\n          )\n          (dropout): Dropout(p=0.0, inplace=False)\n        )\n      )\n    )\n    (neck): Sam3VisionNeck(\n      (position_encoding): Sam3SinePositionEmbedding()\n      (fpn_layers): ModuleList(\n        (0): Sam3FPNLayer(\n          (scale_layers): ModuleList(\n            (0): ConvTranspose2d(16, 8, kernel_size=(2, 2), stride=(2, 2))\n            (1): GELU(approximate='none')\n            (2): ConvTranspose2d(8, 4, kernel_size=(2, 2), stride=(2, 2))\n          )\n          (proj1): Conv2d(4, 16, kernel_size=(1, 1), stride=(1, 1))\n          (proj2): Conv2d(16, 16, kernel_size=(3, 3), stride=(1, 1), padding=(1, 1))\n        )\n        (1): Sam3FPNLayer(\n          (scale_layers): ModuleList(\n            (0): ConvTranspose2d(16, 8, kernel_size=(2, 2), stride=(2, 2))\n          )\n          (proj1): Conv2d(8, 16, kernel_size=(1, 1), stride=(1, 1))\n          (proj2): Conv2d(16, 16, kernel_size=(3, 3), stride=(1, 1), padding=(1, 1))\n        )\n        (2): Sam3FPNLayer(\n          (scale_layers): ModuleList()\n          (proj1): Conv2d(16, 16, kernel_size=(1, 1), stride=(1, 1))\n          (proj2): Conv2d(16, 16, kernel_size=(3, 3), stride=(1, 1), padding=(1, 1))\n        )\n        (3): Sam3FPNLayer(\n          (scale_layers): ModuleList(\n            (0): MaxPool2d(kernel_size=2, stride=2, padding=0, dilation=1, ceil_mode=False)\n          )\n          (proj1): Conv2d(16, 16, kernel_size=(1, 1), stride=(1, 1))\n          (proj2): Conv2d(16, 16, kernel_size=(3, 3), stride=(1, 1), padding=(1, 1))\n        )\n      )\n    )\n  )\n  (text_encoder): CLIPTextModelWithProjection(\n    (text_model): CLIPTextTransformer(\n      (embeddings): CLIPTextEmbeddings(\n        (token_embedding): Embedding(49408, 16)\n        (position_embedding): Embedding(32, 16)\n      )\n      (encoder): CLIPEncoder(\n        (layers): ModuleList(\n          (0-1): 2 x CLIPEncoderLayer(\n            (self_attn): CLIPAttention(\n              (k_proj): Linear(in_features=16, out_features=16, bias=True)\n              (v_proj): Linear(in_features=16, out_features=16, bias=True)\n              (q_proj): Linear(in_features=16, out_features=16, bias=True)\n              (out_proj): Linear(in_features=16, out_features=16, bias=True)\n            )\n            (layer_norm1): LayerNorm((16,), eps=1e-05, elementwise_affine=True)\n            (mlp): CLIPMLP(\n              (activation_fn): GELUActivation()\n              (fc1): Linear(in_features=16, out_features=32, bias=True)\n              (fc2): Linear(in_features=32, out_features=16, bias=True)\n            )\n            (layer_norm2): LayerNorm((16,), eps=1e-05, elementwise_affine=True)\n          )\n        )\n      )\n      (final_layer_norm): LayerNorm((16,), eps=1e-05, elementwise_affine=True)\n    )\n    (text_projection): Linear(in_features=16, out_features=16, bias=False)\n  )\n  (text_projection): Linear(in_features=16, out_features=16, bias=True)\n  (geometry_encoder): Sam3GeometryEncoder(\n    (position_encoding): Sam3SinePositionEmbedding()\n    (label_embed): Embedding(2, 16)\n    (cls_embed): Embedding(1, 16)\n    (boxes_direct_project): Linear(in_features=4, out_features=16, bias=True)\n    (boxes_pool_project): Conv2d(16, 16, kernel_size=(7, 7), stride=(1, 1))\n    (boxes_pos_enc_project): Linear(in_features=18, out_features=16, bias=True)\n    (vision_layer_norm): LayerNorm((16,), eps=1e-05, elementwise_affine=True)\n    (final_proj): Linear(in_features=16, out_features=16, bias=True)\n    (prompt_layer_norm): LayerNorm((16,), eps=1e-05, elementwise_affine=True)\n    (layers): ModuleList(\n      (0-2): 3 x Sam3GeometryEncoderLayer(\n        (layer_norm1): LayerNorm((16,), eps=1e-05, elementwise_affine=True)\n        (self_attn): Sam3Attention(\n          (q_proj): Linear(in_features=16, out_features=16, bias=True)\n          (k_proj): Linear(in_features=16, out_features=16, bias=True)\n          (v_proj): Linear(in_features=16, out_features=16, bias=True)\n          (o_proj): Linear(in_features=16, out_features=16, bias=True)\n        )\n        (dropout): Dropout(p=0.1, inplace=False)\n        (cross_attn): Sam3Attention(\n          (q_proj): Linear(in_features=16, out_features=16, bias=True)\n          (k_proj): Linear(in_features=16, out_features=16, bias=True)\n          (v_proj): Linear(in_features=16, out_features=16, bias=True)\n          (o_proj): Linear(in_features=16, out_features=16, bias=True)\n        )\n        (layer_norm2): LayerNorm((16,), eps=1e-05, elementwise_affine=True)\n        (mlp): Sam3MLP(\n          (activation_fn): ReLU()\n          (fc1): Linear(in_features=16, out_features=32, bias=True)\n          (fc2): Linear(in_features=32, out_features=16, bias=True)\n          (dropout): Dropout(p=0.0, inplace=False)\n        )\n        (layer_norm3): LayerNorm((16,), eps=1e-05, elementwise_affine=True)\n      )\n    )\n    (output_layer_norm): LayerNorm((16,), eps=1e-05, elementwise_affine=True)\n  )\n  (detr_encoder): Sam3DetrEncoder(\n    (layers): ModuleList(\n      (0-5): 6 x Sam3DetrEncoderLayer(\n        (layer_norm1): LayerNorm((16,), eps=1e-05, elementwise_affine=True)\n        (self_attn): Sam3Attention(\n          (q_proj): Linear(in_features=16, out_features=16, bias=True)\n          (k_proj): Linear(in_features=16, out_features=16, bias=True)\n          (v_proj): Linear(in_features=16, out_features=16, bias=True)\n          (o_proj): Linear(in_features=16, out_features=16, bias=True)\n        )\n        (dropout): Dropout(p=0.1, inplace=False)\n        (cross_attn): Sam3Attention(\n          (q_proj): Linear(in_features=16, out_features=16, bias=True)\n          (k_proj): Linear(in_features=16, out_features=16, bias=True)\n          (v_proj): Linear(in_features=16, out_features=16, bias=True)\n          (o_proj): Linear(in_features=16, out_features=16, bias=True)\n        )\n        (layer_norm2): LayerNorm((16,), eps=1e-05, elementwise_affine=True)\n        (mlp): Sam3MLP(\n          (activation_fn): ReLU()\n          (fc1): Linear(in_features=16, out_features=32, bias=True)\n          (fc2): Linear(in_features=32, out_features=16, bias=True)\n          (dropout): Dropout(p=0.0, inplace=False)\n        )\n        (layer_norm3): LayerNorm((16,), eps=1e-05, elementwise_affine=True)\n      )\n    )\n  )\n  (detr_decoder): Sam3DetrDecoder(\n    (layers): ModuleList(\n      (0-5): 6 x Sam3DetrDecoderLayer(\n        (self_attn): Sam3Attention(\n          (q_proj): Linear(in_features=16, out_features=16, bias=True)\n          (k_proj): Linear(in_features=16, out_features=16, bias=True)\n          (v_proj): Linear(in_features=16, out_features=16, bias=True)\n          (o_proj): Linear(in_features=16, out_features=16, bias=True)\n        )\n        (self_attn_dropout): Dropout(p=0.1, inplace=False)\n        (self_attn_layer_norm): LayerNorm((16,), eps=1e-05, elementwise_affine=True)\n        (text_cross_attn): Sam3Attention(\n          (q_proj): Linear(in_features=16, out_features=16, bias=True)\n          (k_proj): Linear(in_features=16, out_features=16, bias=True)\n          (v_proj): Linear(in_features=16, out_features=16, bias=True)\n          (o_proj): Linear(in_features=16, out_features=16, bias=True)\n        )\n        (text_cross_attn_dropout): Dropout(p=0.1, inplace=False)\n        (text_cross_attn_layer_norm): LayerNorm((16,), eps=1e-05, elementwise_affine=True)\n        (vision_cross_attn): Sam3Attention(\n          (q_proj): Linear(in_features=16, out_features=16, bias=True)\n          (k_proj): Linear(in_features=16, out_features=16, bias=True)\n          (v_proj): Linear(in_features=16, out_features=16, bias=True)\n          (o_proj): Linear(in_features=16, out_features=16, bias=True)\n        )\n        (vision_cross_attn_dropout): Dropout(p=0.1, inplace=False)\n        (vision_cross_attn_layer_norm): LayerNorm((16,), eps=1e-05, elementwise_affine=True)\n        (mlp): Sam3MLP(\n          (activation_fn): ReLU()\n          (fc1): Linear(in_features=16, out_features=32, bias=True)\n          (fc2): Linear(in_features=32, out_features=16, bias=True)\n          (dropout): Dropout(p=0.0, inplace=False)\n        )\n        (mlp_layer_norm): LayerNorm((16,), eps=1e-05, elementwise_affine=True)\n        (mlp_dropout): Dropout(p=0.1, inplace=False)\n      )\n    )\n    (output_layer_norm): LayerNorm((16,), eps=1e-05, elementwise_affine=True)\n    (box_head): Sam3DecoderMLP(\n      (layer1): Linear(in_features=16, out_features=16, bias=True)\n      (layer2): Linear(in_features=16, out_features=16, bias=True)\n      (layer3): Linear(in_features=16, out_features=4, bias=True)\n    )\n    (query_embed): Embedding(200, 16)\n    (reference_points): Embedding(200, 4)\n    (presence_token): Embedding(1, 16)\n    (presence_head): Sam3DecoderMLP(\n      (layer1): Linear(in_features=16, out_features=16, bias=True)\n      (layer2): Linear(in_features=16, out_features=16, bias=True)\n      (layer3): Linear(in_features=16, out_features=1, bias=True)\n    )\n    (presence_layer_norm): LayerNorm((16,), eps=1e-05, elementwise_affine=True)\n    (ref_point_head): Sam3DecoderMLP(\n      (layer1): Linear(in_features=32, out_features=16, bias=True)\n      (layer2): Linear(in_features=16, out_features=16, bias=True)\n    )\n    (box_rpb_embed_x): Sam3DecoderMLP(\n      (layer1): Linear(in_features=2, out_features=16, bias=True)\n      (layer2): Linear(in_features=16, out_features=2, bias=True)\n    )\n    (box_rpb_embed_y): Sam3DecoderMLP(\n      (layer1): Linear(in_features=2, out_features=16, bias=True)\n      (layer2): Linear(in_features=16, out_features=2, bias=True)\n    )\n    (position_encoding): Sam3SinePositionEmbedding()\n  )\n  (mask_decoder): Sam3MaskDecoder(\n    (pixel_decoder): Sam3PixelDecoder(\n      (conv_layers): ModuleList(\n        (0-2): 3 x Conv2d(16, 16, kernel_size=(3, 3), stride=(1, 1), padding=(1, 1))\n      )\n      (norms): ModuleList(\n        (0-2): 3 x GroupNorm(8, 16, eps=1e-05, affine=True)\n      )\n    )\n    (mask_embedder): Sam3MaskEmbedder(\n      (layers): ModuleList(\n        (0-2): 3 x Linear(in_features=16, out_features=16, bias=True)\n      )\n      (activation): ReLU()\n    )\n    (instance_projection): Conv2d(16, 16, kernel_size=(1, 1), stride=(1, 1))\n    (semantic_projection): Conv2d(16, 1, kernel_size=(1, 1), stride=(1, 1))\n    (prompt_cross_attn): Sam3Attention(\n      (q_proj): Linear(in_features=16, out_features=16, bias=True)\n      (k_proj): Linear(in_features=16, out_features=16, bias=True)\n      (v_proj): Linear(in_features=16, out_features=16, bias=True)\n      (o_proj): Linear(in_features=16, out_features=16, bias=True)\n    )\n    (prompt_cross_attn_norm): LayerNorm((16,), eps=1e-05, elementwise_affine=True)\n    (prompt_cross_attn_dropout): Dropout(p=0.0, inplace=False)\n  )\n  (dot_product_scoring): Sam3DotProductScoring(\n    (text_mlp): Sam3DecoderMLP(\n      (layer1): Linear(in_features=16, out_features=32, bias=True)\n      (layer2): Linear(in_features=32, out_features=16, bias=True)\n    )\n    (text_mlp_dropout): Dropout(p=0.1, inplace=False)\n    (text_mlp_out_norm): LayerNorm((16,), eps=1e-05, elementwise_affine=True)\n    (text_proj): Linear(in_features=16, out_features=16, bias=True)\n    (query_proj): Linear(in_features=16, out_features=16, bias=True)\n  )\n)\n```","api_call":"","model_name":"yujiepan\/sam3-tiny-random"},"explanation":""}
{"model_name":"allenai\/Molmo2-4B","model_family":"molmo2","created_at":1765752951000,"instruction":"Identify the main elements in this image and explain their relationship.","domain":"Multimodal Video-Text-to-Text","original_dataset":"Hugging Bench","model_source":"
…
